results/model_best.pth.tar (torch, 529543 bytes, 10 tensors)

_module.0.weight f4 [32, 3, 3, 3]
0.02007418 0.17692314 0.1465223 -0.0007449028 -0.15052412 0.12599093 0.13971314 0.092164524
0.073863 -0.106525406 -0.037903264 0.0390097 0.014419077 -0.17201379 0.13695891 0.1331585
0.20233867 -0.0145429345 0.11607584 0.017038971 0.22593364 0.18011768 0.043182764 0.2046303
-0.03838915 0.1439497 0.15267846 -0.09041477 -0.10038693 0.13677008 -0.089745924 0.12923382
-0.063165955 -0.07454601 0.019757075 0.044475816 0.15934542 0.13778642 -0.18001525 -0.040614326
-0.093343444 0.13849539 -0.11935657 -0.20383464 -0.049134303 -0.14198558 -0.00880961 0.18050459
-0.019888936 -0.052767023 0.0935839 -0.003780993 -0.0030280098 0.073748425 -0.08713456 0.1756332
0.10270398 0.079443514 0.25178182 -0.13143529 0.090606526 0.13448058 0.016387621 -0.071791634
-0.053257108 0.033363547 0.07112881 0.043513775 0.14597875 -0.063211806 -0.15656969 -0.08852407
-0.15018478 -0.04541439 -0.1568875 0.16319117 0.05019186 0.12368151 -0.06899012 -0.09594245
0.09245959 -0.16815938 -0.034471232 -0.13309331 0.16550843 -0.0413454 -0.023492096 -0.107331544
-0.15617467 0.05799097 -0.053975593 -0.20039722 -0.12281793 -0.07943819 -0.079538494 0.12511872
0.18251921 0.14255299 0.06385534 -0.0062699798 -0.12870081 0.07754372 0.024235725 0.10592105
0.052573364 0.12937391 0.2403307 0.13738342 0.060850248 -0.11519068 -0.08909765 0.28339633
-0.021305265 -0.2595135 0.13214259 0.08107167 -0.07303945 0.27039412 0.09466999 -0.11093483
0.20475987 0.023071405 -0.1280846 0.2661493 -0.065828726 -0.099324234 0.1389606 -0.18014397
-0.023782952 0.08134808 0.021325078 -0.23946728 -0.051223304 0.044684984 -0.27436748 0.14754781
0.053892955 0.04080968 -0.026147883 0.1394708 0.20090495 -0.075334445 -0.21614699 -0.14350879
-0.11194044 -0.12042252 -0.16924639 0.01261997 0.13212787 -0.091512114 -0.035430826 0.00296957
-0.02735693 -0.057552867 0.0067315446 -0.0010010483 0.20874749 0.18944958 0.2008905 0.18750912
0.19506542 -0.0960818 0.15070844 -0.048763685 -0.19518407 0.19737232 0.02662704 -0.20745547
0.09677515 0.042138595 -0.04967967 0.28370857 0.005093439 -0.1864241 -0.07064007 0.2421134
-0.21320324 0.14983076 0.04454317 -0.008506081 0.043349214 -0.1310001 0.09459981 -0.039312396
0.047568046 -0.041438915 -0.028101126 -0.24033387 -0.020829998 0.11506068 0.00459944 0.15335749
-0.09569871 0.13062678 -0.22020343 -0.30937394 -0.21104561 -0.33642557 0.0634141 0.262694
0.3581168 0.03653696 -0.036764726 -0.12399671 -0.20834608 -0.09961742 -0.1755658 0.36046094
0.23460692 0.026073072 0.23614663 0.12316492 0.23560037 -0.26463094 -0.10482303 -0.051160116
-0.20670117 -0.18935972 -0.048323262 -0.24696374 0.04671692 -0.16536233 0.10546779 0.023530206
0.091376826 0.003945933 -0.019658253 -0.16589765 -0.061009698 -0.045144178 -0.08901758 0.069268286
0.191106 0.18854207 -0.08879066 -0.10687826 0.042653296 0.12771481 -0.121778056 -0.19711772
0.0652746 0.25454384 0.14053653 -0.16609551 -0.0018136274 -0.03331387 -0.16432074 0.07297544
-0.0857034 0.10172265 0.2107799 -0.004242322 -0.046769947 0.019100215 -0.22721295 0.11546671
00000000: 9b72 a43c 572b 353e f109 163e 9545 43ba
00000010: ff22 1abe c403 013e f610 0f3e c1c0 bc3d
00000020: 7c45 973d fe29 dabd 7440 1bbd a3c8 1f3d
00000030: fe3d 6c3c 6224 30be f53e 0c3e b45a 083e
00000040: de31 4f3e 7d45 6ebc 2cb9 ed3d 5095 8b3c
00000050: 265b 673e c570 383e 69e0 303d 9b8a 513e
00000060: f13d 1dbd 8d67 133e be57 1c3e 612b b9bd
00000070: aa97 cdbd 750d 0c3e b6cc b7bd df55 043e
00000080: 275d 81bd 94ab 98bd 97d9 a13c 462c 363d
00000090: 722b 233e e217 0d3e eb55 38be 355b 26bd
000000a0: d92a bfbd bcd1 0d3e 3871 f4bd 07ba 50be
000000b0: 0d41 49bd ab64 11be 2f56 10bc 32d6 383e
000000c0: 1fee a2bc 3c22 58bd eaa8 bf3d 89ca 77bb
000000d0: 9371 46bb 6a09 973d 9b73 b2bd 31d9 333e
000000e0: 7756 d23d 48b3 a23d 8ce9 803e f996 06be
000000f0: ea8f b93d 47b5 093e 553f 863c 7e07 93bd
00000100: 2024 5abd 37a8 083d fbab 913d 803b 323d
00000110: 747b 153e 3175 81bd ce53 20be 1c4c b5bd
00000120: 0aca 19be 7004 3abd 1ea7 20be 961b 273e
00000130: fb95 4d3d bb4c fd3d b14a 8dbd 7a7d c4bd
00000140: 745b bd3d f931 2cbe b531 0dbd 9d49 08be
00000150: 0b7b 293e cb59 29bd 7f72 c0bc a4d0 dbbd
00000160: 41ec 1fbe f087 6d3d 8315 5dbd ee34 4dbe
00000170: f887 fbbd 7db0 a2bd 14e5 a2bd 1f1f 003e
00000180: 51e6 3a3e 69f9 113e 97c6 823d 6774 cdbb
00000190: 25ca 03be 3ecf 9e3d 008a c63c 23ed d83d
000001a0: 2b57 573d 987a 043e 4019 763e 3dae 0c3e
000001b0: 1c3e 793d 17e9 ebbd d478 b6bd 5319 913e
000001c0: 6188 aebc f4de 84be 6350 073e e708 a63d
000001d0: b595 95bd 1971 8a3e 57e2 c13d cd31 e3bd
000001e0: 92ac 513e 3e00 bd3c 9c28 03be b944 883e
000001f0: 36d1 86bd 816a cbbd b04b 0e3e a977 38be
00000200: 77d4 c2bc d299 a63d eeb1 ae3c e936 75be
00000210: 87cf 51bd 9a07 373d e579 8cbe c616 173e
00000220: dcbe 5c3d 0d28 273d 1634 d6bc 6fd1 0e3e
00000230: 07ba 4d3e f248 9abd a355 5dbe f8f3 12be
00000240: 0841 e5bd 15a0 f6bd ed4e 2dbe fec3 4e3c
00000250: 874c 073e b46a bbbd ea1f 11bd 1e9d 423b
00000260: a41b e0bc 8ebc 6bbd 4a94 dc3b 9b35 83ba
00000270: e7c1 553e 12ff 413e 3db6 4d3e 6402 403e
00000280: 3bbf 473e 89c6 c4bd 5053 1a3e 6ebc 47bd
00000290: 55de 47be f81b 4a3e f320 da3c 356f 54be
000002a0: 0d32 c63d 8599 2c3d e97c 4bbd 4042 913e
000002b0: dde6 a63b f6e5 3ebe beab 90bd 93ec 773e
000002c0: f351 5abe 3c6d 193e e672 363d 175d 0bbc
000002d0: f28e 313d e424 06be 8cbd c13d 0906 21bd
000002e0: b6d6 423d dabb 29bd 5534 e6bc 151a 76be
000002f0: aca3 aabc efa4 eb3d e6b6 963b bf09 1d3e
00000300: affd c3bd 07c3 053e 027d 61be 4366 9ebe
00000310: 571c 58be f93f acbe 40df 813d d47f 863e
00000320: 165b b73e c8a7 153d 9c96 16bd fdf1 fdbd
00000330: ad58 55be 3804 ccbd 85c7 33be 568e b83e
00000340: cc3c 703e 3297 d53c 6cd0 713e e43d fc3d
00000350: 3941 713e b57d 87be 75ad d6bd 458d 51bd
00000360: 79a9 53be 84e7 41be 9dee 45bd 10e4 7cbe
00000370: 3e5a 3f3d be54 29be 7fff d73d 6bc2 c03c
00000380: c623 bb3d e34c 813b 580a a1bc 13e1 29be
00000390: 4ee5 79bd 1ae9 38bd d94e b6bd 88dc 8d3d
000003a0: 4bb1 433e 2c11 413e e1d7 b5bd fde2 dabd
000003b0: 39b5 2e3d acc7 023e c666 f9bd 3ad9 49be
000003c0: b1ae 853d 9253 823e cfe8 0f3e f114 2abe
000003d0: 3db7 edba 2074 08bd b243 28be 2674 953d
000003e0: 4485 afbd f753 d03d b0d6 573e 2d03 8bbb
000003f0: d891 3fbd 0e78 9c3c 83aa 68be cf79 ec3d

_module.0.bias f4 [32]
0.031627294 -0.04576002 -0.17068088 0.108767405 0.21335556 0.11521247 0.3343546 -0.035202596
-0.06595299 -0.055186592 0.118767396 -0.12797318 0.14469287 -0.13839315 0.015911963 0.09865702
-0.21979909 0.118459426 0.31094393 0.20317459 0.048245396 0.037688978 -0.11389797 -0.104959294
-0.21397428 0.1253011 0.16074263 0.024667924 0.114686266 0.11938209 0.0012329366 -0.029689077
00000000: 9f8b 013d dc6e 3bbd f8c6 2ebe 72c1 de3d
00000010: e179 5a3e 84f4 eb3d 8730 ab3e 9930 10bd
00000020: 5c12 87bd 560b 62bd 523c f33d 670b 03be
00000030: 5e2a 143e efb6 0dbe ce59 823c b10c ca3d
00000040: 0313 61be db9a f23d 0b34 9f3e 000d 503e
00000050: f79c 453d c25f 1a3d 5743 e9bd e6f4 d6bd
00000060: 131c 5bbe ee4e 003e b799 243e 6314 ca3c
00000070: a2e0 ea3d 997e f43d 7d9a a13a 8236 f3bc

_module.3.weight f4 [64, 32, 3, 3]
0.027306356 0.040329136 0.031466734 -0.031885426 0.036565233 0.08363888 -0.005317489 0.031321038
-0.001708642 -0.07620266 0.012847649 -0.040574443 0.046918526 0.013506453 -0.07314179 0.03202365
-0.010804989 -0.028834522 -0.008003101 0.059467588 -0.023041997 0.025353892 -0.010249579 0.044505093
-0.07592672 -0.030422922 0.061904386 0.06969092 0.060681287 0.002543534 0.03991348 -0.077224106
0.023180304 -0.051001303 0.028155284 -0.110393554 0.022798542 -0.02140034 0.01918519 -0.015661698
0.07056801 -0.05907629 -0.014151349 0.084023215 0.06064113 -0.05134391 -0.0065213228 -0.04393134
0.041281633 -0.008842791 0.04326759 0.03809596 0.016994715 0.060711987 -0.004484906 -0.05836236
0.06050646 0.061284102 0.07434614 0.032442305 0.022948833 0.031723928 0.025256928 -0.05692217
-0.05700148 -0.07641931 0.052215535 -0.011158385 0.020868644 -0.024218172 0.041055646 -0.00459784
-0.00020271882 0.00850046 0.0268664 -0.07073757 -0.037021663 0.00056509086 0.022506222 -0.05629326
0.028823886 0.0047329506 0.058000404 -0.031503253 -0.05677486 0.072171524 -0.060140077 -0.04694251
-0.019452434 0.016929075 -0.0014296466 -0.022484906 -0.009969892 -0.007982899 -0.006786201 0.04501792
-0.029145185 0.015471041 0.03992533 -0.00013864158 -0.020522658 -0.013201001 -0.001496496 -0.011004204
0.05006822 0.040905606 0.0018963264 0.03575296 0.04594515 -0.03477247 -0.023618704 0.017641883
-0.079081416 0.022651503 0.054960646 -0.01188457 0.04442798 0.059544668 0.010944439 0.05957288
0.043418005 -0.058836367 -0.019014807 -0.04712463 0.045181446 0.023578215 -0.059764892 0.0065295813
0.05608347 -0.015754769 0.04337786 -0.043913037 0.028000576 -0.03625821 -0.03803075 0.01759686
-0.02171598 0.016506547 0.0025219792 -0.001603307 0.034947522 -0.007380556 -0.032334175 -0.062661596
0.036840316 0.025100237 -0.013420543 0.046880607 0.003793604 0.0567089 -0.001995822 -0.05038894
-0.054748554 0.009269019 0.026045702 -0.032767203 0.030852485 -0.025242938 0.021046467 -0.02064736
-0.0051470683 0.049218245 0.05883783 0.061492674 -0.00627599 0.07612137 0.019417766 -0.035032388
0.06720325 -0.03147096 0.041715536 0.06387732 -0.006746226 -0.026180664 0.028870162 0.035227038
0.03993657 -0.033393104 0.009565456 0.011521697 -0.037102494 0.07678183 0.054587442 -0.014794779
-0.03888212 -0.03385598 0.023824388 -0.037889875 -0.028657356 -0.045381963 -0.00219881 -0.011379213
0.06428439 -0.017856495 0.014823241 0.039918832 -0.0010770148 -0.013412328 0.0076484918 0.024637122
-0.0064727897 -0.0007527755 0.08832116 -0.036753416 -0.02528289 -0.011453253 -0.033086166 -0.005471989
0.025701514 -0.05709415 0.049761046 -0.02901246 -0.03278866 0.004270944 0.04152522 -0.057003576
0.070852615 -0.008109293 0.08551235 -0.035285775 -0.003983697 -0.01433828 0.013065659 0.04513414
0.08119201 -0.0061899005 -0.016302282 0.018160786 0.02063173 0.068072654 0.053216755 -0.012194915
0.0153245265 0.0932995 0.013028775 -0.06913933 -0.018367743 -0.008684057 -0.02454572 0.023973295
0.016076952 0.040961936 0.034790512 -0.034029428 -0.058952987 -0.023930801 -0.014605977 0.010592995
-0.029364215 -0.045515694 0.057651475 -0.05309089 0.02512508 -0.011578697 -0.006000358 -0.04946372
00000000: 94b1 df3c 2a30 253d 43e3 003d 4b9a 02bd
00000010: 6dc5 153d dc4a ab3d 553e aebb 7d4a 003d
00000020: 83f4 dfba 2410 9cbd f27e 523c 6331 26bd
00000030: a42d 403d 2b4a 5d3c 5dcb 95bd 3b2b 033d
00000040: 6907 31bc 6036 ecbc 701f 03bc 4994 733d
00000050: 92c2 bcbc f7b2 cf3c daed 27bc f94a 363d
00000060: 787f 9bbd 7e39 f9bc 748f 7d3d 1dba 8e3d
00000070: f18c 783d 6bb1 263b 517c 233d ac27 9ebd
00000080: 9fe4 bd3c bee6 50bd e9a5 e63c 0416 e2bd
00000090: 02c4 ba3c c44f afbc 422a 9d3c f64c 80bc
000000a0: f685 903d fbf9 71bd 0fdb 67bc 5d14 ac3d
000000b0: d562 783d fe4d 52bd d2b0 d5bb 59f1 33bd
000000c0: ee16 293d 5be1 10bc 5b39 313d 820a 1c3d
000000d0: 8038 8b3c 22ad 783d 1ef6 92bb 5f0d 6fbd
000000e0: 9fd5 773d 0a05 7b3d ca42 983d 39e2 043d
000000f0: 31ff bb3c f3f0 013d 9ee7 ce3c 3927 69bd
00000100: 627a 69bd ba81 9cbd f5df 553d a9d1 36bc
00000110: b8f4 aa3c 3065 c6bc f729 283d 7aa9 96bb
00000120: eb90 54b9 8345 0b3c ed16 dc3c dcde 90bd
00000130: 07a4 17bd 9b22 143a f85e b83c c393 66bd
00000140: 1220 ec3c de16 9b3b d591 6d3d 8e09 01bd
00000150: c18c 68bd aace 933d 7155 76bd ca46 40bd
00000160: b65a 9fbc d8ae 8a3c fb62 bbba 4432 b8bc
00000170: c258 23bc b5ca 02bc c85e debb b664 383d
00000180: e2c1 eebc 407a 7d3c be88 233d 5160 11b9
00000190: 221f a8bc 0349 58bc 1326 c4ba fa4a 34bc
000001a0: 5514 4d3d a38c 273d 288e f83a b271 123d
000001b0: fb30 3c3d 946d 0ebd 037c c1bc b685 903c
000001c0: 70f5 a1bd a58f b93c 6a1e 613d 80b7 42bc
000001d0: 1dfa 353d 1ce5 733d 4e50 333c b102 743d
000001e0: 14d7 313d 67fe 70bd f1c4 9bbc c205 41bd
000001f0: 2e10 393d 1a27 c13c 08cc 74bd 19f6 d53b
00000200: c8b7 653d 2510 81bc fcac 313d 28de 33bd
00000210: 7761 e53c 7d83 14bd 22c6 1bbd 4a27 903c
00000220: b6e5 b1bc bd38 873c ca47 253b 0e26 d2ba
00000230: 2225 0f3d 97d8 f1bb d770 04bd b954 80bd
00000240: dfe5 163d 039f cd3c d6e1 5bbc e105 403d
00000250: 1d9e 783b 9747 683d 56cc 02bb a264 4ebd
00000260: 0540 60bd 15dd 173c cc5d d53c e736 06bd
00000270: 5abe fc3c 47ca cebc a469 ac3c a724 a9bc
00000280: bda8 a8bb 1299 493d f0ff 703d bedf 7b3d
00000290: d2a6 cdbb 85e5 9b3d 0212 9f3c 1f7e 0fbd
000002a0: dca1 893d b1e7 00bd e9dd 2a3d 1dd2 823d
000002b0: 720f ddbb d578 d6bc 1e81 ec3c 3a4a 103d
000002c0: 8794 233d 35c7 08bd 6eb8 1c3c 80c5 3c3c
000002d0: c9f8 17bd cb3f 9d3d 1597 5f3d cd65 72bc
000002e0: dc42 1fbd 91ac 0abd 5d2b c33c 6a32 1bbd
000002f0: d5c2 eabc 70e2 39bd e919 10bb e16f 3abc
00000300: 89a7 833d c947 92bc 2edd 723c ee81 233d
00000310: 9f2a 8dba 62bf 5bbc 33a0 fa3b cad3 c93c
00000320: b219 d4bb e955 45ba b9e1 b43d c08a 16bd
00000330: 101e cfbc 6da6 3bbc 5c85 07bd 5f4e b3bb
00000340: fb8b d23c 8edb 69bd 3dd2 4b3d 8aab edbc
00000350: 674d 06bd 46f3 8b3b 5916 2a3d 957c 69bd
00000360: 2d1b 913d d7dc 04bc 1921 af3d d187 10bd
00000370: ac89 82bb 1beb 6abc 5911 563c 93de 383d
00000380: ff47 a63d a6d4 cabb 5d8c 85bc eec5 943c
00000390: e003 a93c ad69 8b3d d0f9 593d 2ecd 47bc
000003a0: b913 7b3c cf13 bf3d a576 553c ec98 8dbd
000003b0: f377 96bc 9347 0ebc 1b14 c9bc a563 c43c
000003c0: d0b3 833c b4c7 273d 7f80 0e3d 7162 0bbd
000003d0: b078 71bd 870a c4bc e84d 6fbc 3e8e 2d3c
000003e0: 398d f0bc aa6e 3abd f423 6c3d d575 59bd
000003f0: 1dd3 cd3c 93b4 3dbc a79e c4bb 789a 4abd

_module.3.bias f4 [64]
0.13165726 0.22973174 -0.032346744 0.008943547 -0.00057160313 0.05957929 -0.0034183143 0.009166564
-0.17997743 0.15886253 0.1350603 0.05348522 0.03061912 0.053468626 -0.10348759 -0.025941027
-0.020470127 0.0179722 0.049183816 0.27475715 -0.07816655 -0.024461731 -0.0016516434 -0.03980171
-0.03535538 0.055738557 -0.011282155 -0.03756081 0.015876152 -0.04806782 -0.10499967 0.16920498
-0.009484509 -0.035040062 -0.09360618 0.07323514 0.033369176 -0.051620193 0.040435873 0.07315397
0.002636043 -0.021083392 -0.036751166 -0.09874728 -0.057595946 0.024712754 -0.03544343 0.030296264
-0.03264054 0.01916545 -0.13445893 0.042126577 -0.0022160367 -0.042399235 -0.039773688 -0.022121899
-0.07404291 0.042916223 0.00033973565 -0.010311876 0.08025503 0.037785094 -0.090880774 0.027124114
00000000: 29d1 063e cc3e 6b3e 057e 04bd f487 123c
00000010: a3d7 15ba 6a09 743d cc05 60bb 5b2f 163c
00000020: 014c 38be dcac 223e 3f4d 0a3e 5113 5b3d
00000030: f3d4 fa3c eb01 5b3d 4df1 d3bd 4782 d4bc
00000040: f8b0 a7bc 6f3a 933c f874 493d f8ac 8c3e
00000050: c915 a0bd f863 c8bc f57b d8ba 1e07 23bd
00000060: ced0 10bd 1d4e 643d cad8 38bc 5dd9 19bd
00000070: b40e 823c c3e2 44bd 110a d7bd 1244 2d3e
00000080: ea64 1bbc 2b86 0fbd 99b4 bfbd 4efc 953d
00000090: 1eae 083d b26f 53bd 16a0 253d c0d1 953d
000000a0: 76c1 2c3b 14b7 acbc 6488 16bd 043c cabd
000000b0: bae9 6bbd 6772 ca3c 212d 11bd df2f f83c
000000c0: 16b2 05bd dd00 9d3c 9aaf 09be eb8c 2c3d
000000d0: ed3a 11bb d2aa 2dbd bce9 22bd fc38 b5bc
000000e0: cfa3 97bd ecc8 2f3d 8c1e b239 25f3 28bc
000000f0: c05c a43d 8bc4 1a3d b31f babd 6433 de3c

_module.6.weight f4 [64, 64, 3, 3]
0.06364821 0.007179556 0.0068191355 0.00032267606 -0.021106724 0.0269746 -0.017634567 0.0816357
-0.060540535 -0.004302815 -0.010791012 0.027218906 -0.011442033 0.007195074 0.010713826 -0.06417662
0.006588429 0.012155552 0.007664657 0.0014515353 -0.042448692 -0.07818808 0.007973126 -0.022800777
0.010760187 -0.0037465289 0.02079932 0.02777208 -0.012635512 0.034380984 0.01986189 0.042259857
-0.021651423 0.0050230264 -0.021481453 -0.005200514 0.014846208 0.013557195 0.0158953 0.05202006
-0.024702176 0.029797627 0.07361402 0.022540104 -0.025456807 0.0063400664 -0.019796997 -0.023109209
-0.058020983 0.046180256 0.043929685 0.01071407 -0.0043311175 -0.007471417 -0.047271974 -0.004707484
-0.045606982 -0.051278863 -0.012652497 -0.006045568 0.037708282 0.022628296 -0.022478547 0.0579588
-0.041547697 0.03422601 -0.06968428 0.043991167 0.067434676 -0.0027595344 -0.01849712 0.026981035
-0.0061088493 -0.01394429 0.034147773 0.0016627447 -0.011807794 0.011121023 0.019047372 -0.01646185
-0.010975429 0.046288498 0.05803559 -0.02397351 -0.043115843 0.0030510654 -0.03521761 0.0111010205
-0.07134964 0.017229812 -0.017625 0.02700331 -0.022897758 0.048251063 -0.005773446 0.033664726
-0.033903886 -0.06668556 -0.008481155 -0.0012094048 -0.01040394 -0.042790446 0.028876597 0.025710836
0.010714345 -0.052176476 -0.008466907 -0.018005738 -0.03875632 -0.050218884 0.011244124 0.038764015
0.039297666 0.017400265 -0.0030261176 0.03338331 -0.031955723 -0.008586575 0.0423464 -0.031980276
0.017006261 -0.019259641 -0.04726422 -0.016501741 0.01654893 -0.05757916 0.025587711 0.03786649
-0.0075235968 -0.019322276 0.1003102 0.044409253 0.03097614 0.0954519 0.053311877 -0.031646993
0.0083318865 0.05250155 0.08226218 -0.0018682478 0.016035518 -0.0150350705 0.039898984 -0.033571284
0.020970402 0.029127708 -0.03405139 -0.008533041 0.042063735 0.048009686 0.040216263 -0.018074075
-0.008639006 0.0098200245 -0.023301274 0.00488152 -0.04920925 -0.04152364 0.03106046 0.022503274
0.018740738 0.043527383 -0.0017193435 -0.02973466 0.0063052997 -0.023816355 0.05441046 -0.009460786
-0.0045587616 -0.047377445 -0.009201986 -0.03756726 0.032980286 0.041679822 -0.062989 0.016155347
-0.024959253 0.027932782 -0.030796764 -0.081295766 0.029599162 0.028597876 -0.0011019267 0.062300976
-0.006100281 0.050795015 0.03168708 -0.00032608327 0.018216388 -0.057310265 -0.023270465 0.028294276
-0.0032539207 0.01389445 -0.04682547 -0.009341751 -0.0047744205 0.0048864 -0.0067062094 -0.012677732
-0.005157127 0.042811587 0.014809595 -0.03563843 -0.07343566 0.030575974 0.013803357 0.041556023
-0.006674774 0.03670644 -0.009746847 -0.0033575455 -0.021060096 -0.040398657 -0.0026994105 -0.0129808495
0.031131007 -0.027958281 0.03638401 0.012983901 0.019752685 -0.056724768 0.015294496 0.01299191
0.055300966 0.04234574 0.0046989787 0.01769332 -0.011791082 -0.02404652 -0.000912316 0.022700118
0.072443865 -0.03611123 0.04404473 0.013192925 0.04192522 0.06127648 0.03795475 -0.048961878
0.044942643 -0.070211016 -0.037361383 0.014997387 0.02070644 -0.01335362 -0.059478287 0.035534717
-0.041235015 -0.04404847 -0.018630847 0.002761085 0.013547856 0.0148376785 -0.056106314 -0.024417976
00000000: fe59 823d 7b42 eb3b 0e73 df3b d92c a939
00000010: 02e8 acbc d6f9 dc3c 5e76 90bc 9e30 a73d
00000020: 5af9 77bd a1fe 8cbb c9cc 30bc 2ffa de3c
00000030: 5d77 3bbc a8c4 eb3b 0b89 2f3c 086f 83bd
00000040: c0e3 d73b 1528 473c ce27 fb3b 7141 be3a
00000050: aede 2dbd 1221 a0bd b7a1 023c b2c8 babc
00000060: 7f4b 303c 5388 75bb 5663 aa3c 4682 e33c
00000070: 2e05 4fbc 13d3 0c3d 67b5 a23c ac18 2d3d
00000080: 535e b1bc 3398 a43b dff9 afbc 1369 aabb
00000090: 823d 733c ff1e 5e3c dc36 823c fd12 553d
000000a0: 385c cabc 271a f43c f3c2 963d 06a6 b83c
000000b0: cb8a d0bc 55c0 cf3b 502d a2bc 864f bdbc
000000c0: 69a7 6dbd 8227 3d3d 9def 333d 118a 2f3c
000000d0: 0cec 8dbb cad2 f4bb 42a0 41bd 3d41 9abb
000000e0: 63ce 3abd c909 52bd 6b4c 4fbc e619 c6bb
000000f0: 0074 1a3d fa5e b93c ee24 b8bc 3566 6d3d
00000100: eb2d 2abd 9330 0c3d a2b6 8ebd 1530 343d
00000110: 311b 8a3d 4ed9 34bb 4687 97bc 5507 dd3c
00000120: be2c c8bb 9776 64bc 89de 0b3d 74f0 d93a
00000130: 7a75 41bc f434 363c 3c09 9c3c 00db 86bc
00000140: 49d2 33bc 0299 3d3d bab6 6d3d 1864 c4bc
00000150: 3d9a 30bd 62f4 473b 5740 10bd 0ee1 353c
00000160: c31f 92bd 8925 8d3c 4e62 90bc 0c36 dd3c
00000170: 1494 bbbc e8a2 453d 2d2f bdbb 06e4 093d
00000180: cdde 0abd 7092 88bd 8bf4 0abc e484 9eba
00000190: 4a75 2abc 0945 2fbd 9d8e ec3c 889f d23c
000001a0: 388b 2f3c 00b7 55bd c8b8 0abc c580 93bc
000001b0: f2be 1ebd 51b2 4dbd 4639 383c 04c7 1e3d
000001c0: 97f6 203d 008b 8e3c d451 46bb f0bc 083d
000001d0: 01e4 02bd b5ae 0cbc 6b73 2d3d c0fd 02bd
000001e0: b750 8b3c 65c6 9dbc 2098 41bd a92e 87bc
000001f0: 9f91 873c 20d8 6bbd 529d d13c e519 1b3d
00000200: 8188 f6bb c049 9ebc 6f6f cd3d 7ae6 353d
00000210: adc1 fd3c 497c c33d 8e5d 5a3d 47a0 01bd
00000220: 7782 083c de0b 573d 1379 a83d fedf f4ba
00000230: eb5c 833c a855 76bc 1e6d 233d 0b82 09bd
00000240: 1fca ab3c 3b9d ee3c 7879 0bbd 2bce 0bbc
00000250: 064b 2c3d cea5 443d cfb9 243d 1510 94bc
00000260: 9e8a 0dbc 2be4 203c 50e2 bebc 28f5 9f3b
00000270: a38f 49bd b114 2abd 8172 fe3c c958 b83c
00000280: 2d86 993c c549 323d 985b e1ba 1a96 f3bc
00000290: b09c ce3b 841a c3bc 81dd 5e3d 6a01 1bbc
000002a0: aa61 95bb da0e 42bd edc3 16bc 21e0 19bd
000002b0: 5616 073d 76b8 2a3d 6000 81bd 3858 843c
000002c0: 5977 ccbc 4ad3 e43c 7f49 fcbc 657e a6bd
000002d0: f179 f23c 1846 ea3c 866e 90ba 4f2f 7f3d
000002e0: dee4 c7bb 6f0e 503d 50ca 013d 28f6 aab9
000002f0: 893a 953c 2bbe 6abd b4a1 bebc 66c9 e73c
00000300: bb3f 55bb 8ca5 633c 10cc 3fbd 250e 19bc
00000310: be72 9cbb 181e a03b c3bf dbbb 43b6 4fbc
00000320: 1efd a8bb 345b 2f3d f2a3 723c 9af9 11bd
00000330: 6f65 96bd 777a fa3c 7a27 623c a636 2a3d
00000340: 10b8 dabb 7e59 163d 3db1 1fbc 440a 5cbb
00000350: 3986 acbc 1079 25bd 98e8 30bb a1ad 54bc
00000360: 7406 ff3c c408 e5bc 6607 153d 6eba 543c
00000370: 62d0 a13c 3b58 68bd c495 7a3c 05dc 543c
00000380: 4483 623d ba72 2d3d e4f9 993b 95f1 903c
00000390: 622f 41bc 35fd c4bc 7e28 6fba 99f5 b93c
000003a0: 735d 943d 5ee9 13bd 3f68 343d 2327 583c
000003b0: c8b9 2b3d 0cfd 7a3d 7176 1b3d 408c 48bd
000003c0: c715 383d cbca 8fbd 4008 19bd 9ab7 753c
000003d0: 8da0 a93c 24c9 5abc 819f 73bd da8c 113d
000003e0: 0ce6 28bd 2b6c 34bd b89f 98bc 52f3 343b
000003f0: d4f7 5d3c bc19 733c bccf 65bd 3508 c8bc

_module.6.bias f4 [64]
0.052082993 -0.04595286 0.13803028 -0.07526358 0.020394826 0.061080903 0.020859934 -0.052417804
-0.011783807 -0.021373183 0.017639566 0.06309289 -0.014268625 -0.035195913 -0.008240522 0.016368428
-0.009452438 0.15100993 -0.0024903528 -0.007965464 0.0354071 0.12733307 0.038978368 -0.070580564
0.07072386 -0.03218605 0.050510585 -0.109828144 -0.0036312959 0.13528119 -0.046257496 -0.0029194227
0.022464912 -0.0011581925 -0.02867404 -0.047521617 -0.0076871663 -0.01864217 0.026639305 0.016805675
0.043793626 0.018829044 -0.015578756 0.045279153 0.004092348 0.07723841 0.020601979 0.1768995
0.044643782 -0.025214212 0.01251428 0.089590676 -0.018942593 -0.008692089 -0.010113637 -0.04760922
-0.042325117 -0.04423235 -0.0026301795 -0.07198962 -0.04427418 0.035115562 0.04388005 0.06053295
00000000: fa54 553d 1139 3cbd cf57 0d3e cb23 9abd
00000010: 0d13 a73c f82f 7a3d 74e2 aa3c 0db4 56bd
00000020: de10 41bc d016 afbc da80 903c d836 813d
00000030: f3c6 69bc 9729 10bd 4103 07bc 1517 863c
00000040: 66de 1abc 59a2 1a3e 3035 23bb 9481 02bc
00000050: 0907 113d 9a63 023e c8a7 1f3d 8b8c 90bd
00000060: acd7 903d 85d5 03bd 30e4 4e3d 94ed e0bd
00000070: 09fb 6dbb 2787 0a3e 8078 3dbd c953 3fbb
00000080: 5608 b83c 7ece 97ba d2e5 eabc 07a6 42bd
00000090: a0e4 fbbb 77b7 98bc ac3a da3c 0eac 893c
000000a0: f260 333d 5e3f 9a3c 0a3e 7fbc a276 393d
000000b0: 1a19 863b 2c2f 9e3d 7bc5 a83c 2425 353e
000000c0: 66dc 363d 098e cebc b208 4d3c 517b b73d
000000d0: 7f2d 9bbc 4369 0ebc abb3 25bc e301 43bd
000000e0: 1a5d 2dbd fb2c 35bd 175f 2cbb 4b6f 93bd
000000f0: d858 35bd 56d5 0f3d 91bb 333d 66f1 773d

_module.9.weight f4 [128, 64, 3, 3]
-0.024906065 0.028359456 0.011244815 0.02845566 -0.035398353 0.04930732 -0.08296465 -0.011570661
-0.028040256 -0.033671446 -0.08267619 0.013729395 -0.07770965 0.02100241 -0.009136239 0.017150644
0.030661168 0.023848018 -0.03575668 0.0094490005 -0.017159853 0.016786136 0.037343886 0.030459326
0.006848491 -0.022022318 -0.03248174 0.066711985 0.07982191 -0.027719408 -0.07160097 -0.039996527
-0.026142864 -0.07930856 -0.1541056 -0.11711644 -0.026714798 -0.0060108164 0.031365793 0.012800592
-0.023979675 0.017631536 0.055145137 -0.0429581 0.048663273 -0.049451686 -0.061633486 0.048967816
0.015890999 0.022016598 0.017468352 0.00053785904 -0.039026707 0.05272234 0.067035966 0.024441157
0.07054608 -0.0100103 0.08140359 -0.05913132 -0.04149217 0.058143597 0.021441177 0.0018382029
0.010562755 0.061127715 0.06276343 -0.0054193307 0.057283744 0.033993963 -0.02531975 -0.02621544
0.04027386 -0.032934956 -0.0043794997 0.0033146043 0.0367969 -0.012702475 0.03582115 0.037826736
-0.008176069 -0.0030379614 -0.06457919 -0.02536738 0.033736996 -0.028129421 0.037947487 -0.059608296
0.008466999 -0.017696152 -0.037924256 -0.014598612 0.029431216 0.044907887 0.0065051867 0.038260322
-0.017433612 -0.028425835 0.048027344 0.055978544 0.015215019 0.00976653 -0.030820329 0.0086643
-0.01421355 0.019567683 0.003029868 -0.013559443 0.03813811 -0.019267393 -0.013363138 -0.00034544873
0.0377929 0.029969871 0.032769952 0.06977148 0.051110458 -0.04457191 -0.0154308025 -0.033049464
0.019570477 0.04120516 0.026426496 -0.028890597 -0.0070315194 9.8061995e-05 -0.030872887 0.010922255
-0.031944454 -0.0018695282 -0.044790935 -0.030621769 -0.040577706 -0.010678457 -0.036967725 -0.006748262
0.03137263 -0.0059618657 -0.004858236 -0.030244801 0.0388453 -0.036107745 -0.0028321133 -0.029076334
0.028097108 0.027462218 -0.03653408 -0.04295996 -0.021452991 0.010776627 -0.012106567 0.022574184
-0.011412032 0.048160885 -0.023719573 -0.07811692 -0.008969791 -0.005924424 -0.017040946 0.020791102
-0.039140973 0.02894478 -0.011478259 0.005415907 0.024429295 0.0068843667 0.050235882 0.040784743
0.0130839925 0.009640235 0.0514646 0.01304627 -0.02957752 -0.048537686 0.050941985 0.05188103
-0.007383628 -0.066759065 0.08177246 0.0021096515 0.047304824 0.0054564886 0.016223086 0.015691739
-0.026865533 -0.07188239 -0.001822525 -0.05563178 0.009370044 -0.0027663962 -0.022146685 -0.027864158
-0.011559476 -0.0033954144 0.083073154 0.06464376 0.025180353 0.05412687 0.010948392 0.006754969
0.013624205 0.0071465233 0.017584803 -0.07083654 0.045485463 0.03771985 -0.046587504 0.026313227
0.07822161 0.04925863 -0.024373166 -0.019368477 -0.05369789 -0.03749355 -0.07321516 0.025054906
0.036925163 0.005432167 0.044018168 -0.051969405 0.008853179 0.010788863 0.014832372 -0.014637302
0.032861404 0.035814278 0.020209227 -0.0049034567 -0.0272112 -0.0025239964 0.025913458 -0.055339206
-0.013565567 0.05922792 0.007411417 -0.03197635 0.0031997638 0.009004593 0.045028005 0.029519642
-0.0076889135 -0.0076615037 0.035481602 0.048372183 0.052408867 0.049976483 -0.103066705 -0.053765096
-0.02034817 -0.07120472 -0.11700868 -0.022106066 0.02926292 -0.016478088 0.02222654 -0.02108841
00000000: ce07 ccbc 1752 e83c 2c3c 383c d81b e93c
00000010: ddfd 10bd 79f6 493d 5fe9 a9bd df92 3dbc
00000020: aeb4 e5bc 12eb 09bd 2252 a9bd 42f1 603c
00000030: 3d26 9fbd 3f0d ac3c 2ab0 15bc 827f 8c3c
00000040: 212d fb3c eb5c c33c 9975 12bd fbcf 1a3c
00000050: d292 8cbc 1483 893c e7f5 183d d685 f93c
00000060: 4e69 e03b 2668 b4bc 930b 05bd 4ba0 883d
00000070: ab79 a33d d013 e3bc 88a3 92bd 66d3 23bd
00000080: 8f29 d6bc 876c a2bd dccd 1dbe beda efbd
00000090: fed8 dabc 62f6 c4bb 6b79 003d 93b9 513c
000000a0: 0671 c4bc 0370 903c dedf 613d d5f4 2fbd
000000b0: 2453 473d da8d 4abd 6573 7cbd 7a92 483d
000000c0: d72d 823c 275c b43c ca19 8f3c 1cff 0c3a
000000d0: 78da 1fbd 61f3 573d 274a 893d d238 c83c
000000e0: 777a 903d 3e02 24bc edb6 a63d af33 72bd
000000f0: b2f3 29bd fb27 6e3d 68a5 af3c dbef f03a
00000100: 680f 2d3c 0e61 7a3d 1d8a 803d a494 b1bb
00000110: 5ca2 6a3d 413d 0b3d 5d6b cfbc c3c1 d6bc
00000120: 34f6 243d cee6 06bd e881 8fbb d539 593b
00000130: 59b8 163d 0b1e 50bc 33b9 123d 35f0 1a3d
00000140: ebf4 05bc 8918 47bb 1842 84bd 40cf cfbc
00000150: ce2f 0a3d ac6f e6bc d36e 1b3d d427 74bd
00000160: 2bb9 0a3c 85f7 90bc 7756 1bbd 042f 6fbc
00000170: bc19 f13c 55f1 373d 7629 d53b dbb6 1c3d
00000180: efd0 8ebc 4cdd e8bc 52b8 443d c249 653d
00000190: 6a48 793c cc03 203c ea7a fcbc b5f4 0d3c
000001a0: f3df 68bc 684c a03c c090 463b 6d28 5ebc
000001b0: b536 1c3d a7d6 9dbc 10f1 5abc 581d b5b9
000001c0: bacc 1a3d 6083 f53c c939 063d 5ae4 8e3d
000001d0: 3359 513d 0991 36bd 7ad1 7cbc e05e 07bd
000001e0: 4452 a03c bec6 283d 617c d83c f9ab ecbc
000001f0: a968 e6bb a2a6 cd38 23e9 fcbc 42f3 323c
00000200: 30d8 02bd f50a f5ba b376 37bd 81da fabc
00000210: cf34 26bd b2f4 2ebc 786b 17bd 8620 ddbb
00000220: 9680 003d c15b c3bb d631 9fbb f2c3 f7bc
00000230: 401c 1f3d b7e5 13bd fa9a 39bb 7e31 eebc
00000240: e82b e63c 72f8 e03c c2a4 15bd c8f6 2fbd
00000250: 2fbe afbc 7390 303c 9f5a 46bc 7fed b83c
00000260: 88f9 3abc 5944 453d 8d4f c2bc c4fb 9fbd
00000270: 08f6 12bc ac21 c2bb 7499 8bbc 1a52 aa3c
00000280: 4952 20bd 9a1d ed3c 4f0f 3cbc ec77 b13b
00000290: f21f c83c 4196 e13b 24c4 4d3d e70d 273d
000002a0: 3e5e 563c 14f2 1d3c 8bcc 523d 06c0 553c
000002b0: 8e4c f2bc 74cf 46bd 8ba8 503d 3481 543d
000002c0: 5cf2 f1bb fab8 88bd 5278 a73d 1442 0a3b
000002d0: b4c2 413d 58cc b23b 47e6 843c f68b 803c
000002e0: 1b15 dcbc 1337 93bd cbe1 eeba 26de 63bd
000002f0: d084 193c 6d4c 35bb f76c b5bc 6043 e4bc
00000300: f563 3dbc 9a85 5ebb 4222 aa3d f363 843d
00000310: 0747 ce3c 23b4 5d3d e260 333c c958 dd3b
00000320: 0f38 5f3c 622d ea3b 010e 903c bf12 91bd
00000330: f74e 3a3d 2180 1a3d 8ad2 3ebd d68e d73c
00000340: a732 a03d 6bc3 493d 3caa c7bc a4aa 9ebc
00000350: 52f2 5bbd d692 19bd d4f1 95bd f23f cd3c
00000360: d73e 173d 5200 b23b 654c 343d dfdd 54bd
00000370: ed0c 113c c5c3 303c 7a03 733c 4bd1 6fbc
00000380: ae99 063d feb1 123d d28d a53c 2dad a0bb
00000390: 06ea debc a269 25bb 7648 d43c 5dab 62bd
000003a0: 1d42 5ebc fa98 723d 79db f23b a2f9 02bd
000003b0: 21b3 513b 0088 133c 496f 383d 2dd3 f13c
000003c0: 48f3 fbbb 5a0d fbbb 2855 113d e921 463d
000003d0: aeaa 563d 24b4 4c3d a314 d3bd ca38 5cbd
000003e0: 35b1 a6bc c8d3 91bd 3fa2 efbd c817 b5bc
000003f0: cbb8 ef3c 0efd 86bc 6f14 b63c 9ac1 acbc

_module.9.bias f4 [128]
-0.05259266 0.07916139 -0.034863893 -0.024196021 0.0072631976 -0.040817298 -0.0024134123 -0.03216843
0.02813389 0.0040560206 0.072953194 0.014800749 -0.0668056 0.06451134 0.021610973 0.024800183
0.0698522 -0.034276098 -0.043113418 -0.05928863 -0.0076439255 0.00928501 -0.040644873 -0.08495678
-0.0021445476 0.04075384 -0.009033325 0.0140590975 0.124117576 -0.011371705 0.015812542 0.098864764
-0.073897086 -0.055848546 0.16288811 -0.027107092 0.17257383 -0.023766352 -0.029928675 0.021480035
0.021684542 -0.055008788 -0.038161524 0.07330649 0.040940214 -0.016438525 0.13153505 -0.015659424
0.040209908 -0.045135323 -0.009631145 0.036844406 -0.03641529 0.047074746 -0.09607344 -0.039030246
0.09342956 0.013230152 0.08417345 0.076017186 -0.018289404 0.0030711098 -0.023423633 -0.026327452
0.0072725895 0.03581559 -0.06039338 0.049062874 0.028951997 0.10802042 -0.008070503 0.036618777
0.019096838 -0.044963997 -0.034358315 0.02374864 0.013670568 0.064740136 0.0105963 0.032833844
0.04763913 -0.04470351 -0.027445998 0.007527262 -0.012919996 -0.019147903 -0.0132318735 -0.008719173
-0.021417476 -0.0020051699 0.025486179 -0.0016092889 0.054748327 0.050938208 -0.05982845 0.07668621
-0.022476638 0.013769787 0.038590986 -0.018121952 0.05023469 -0.04882783 0.020422889 0.12422469
-0.08814842 -0.07025775 -0.059137654 0.032294318 -0.07574242 -0.019819181 -0.012051772 -0.051868822
0.009228042 0.020175172 0.018749557 0.0002036705 0.04306778 0.034708865 0.06200213 0.07041777
0.015268966 -0.0027071685 -0.0024038584 0.07726816 -0.0042837076 -0.042004377 -0.013571943 -0.057318892
00000000: 676b 57bd 5e1f a23d 71cd 0ebd bc36 c6bc
00000010: 1e00 ee3b 0a30 27bd 572a 1ebb 0bc3 03bd
00000020: 0b79 e63c 5ee8 843b 7c68 953d d77e 723c
00000030: 60d1 88bd 851e 843d 7f09 b13c c129 cb3c
00000040: ac0e 8f3d 1865 0cbd b297 30bd a2d8 72bd
00000050: e579 fabb 2820 183c 3d7b 26bd d2fd adbd
00000060: 8a8b 0cbb 80ed 263d 8300 14bc 2158 663c
00000070: 5b31 fe3d 6350 3abc 4e89 813c 9c79 ca3d
00000080: 5b57 97bd 72c1 64bd 24cc 263e b10f debc
00000090: 32b7 303e a7b1 c2bc fb2c f5bc e6f6 af3c
000000a0: c8a3 b13c e550 61bd 424f 1cbd b721 963d
000000b0: edb0 273d 16aa 86bc 20b1 063e 3148 80bc
000000c0: 25b3 243d d1df 38bd f3cb 1dbc 29ea 163d
000000d0: 3328 15bd 73d1 403d 27c2 c4bd 2ede 1fbd
000000e0: ff57 bf3d 48c3 583c 2163 ac3d e6ae 9b3d
000000f0: a9d3 95bc ac44 493b ebe2 bfbc abac d7bc
00000100: e74e ee3b 5eb3 123d 0c5f 77bd 27f6 483d
00000110: bd2c ed3c cf39 dd3d 253a 04bc 92fd 153d
00000120: f970 9c3c 2b2c 38bd 4ebb 0cbd 828c c23c
00000130: 85fa 5f3c 7a96 843d 1a9c 2d3c c87c 063d
00000140: 4021 433d 071b 37bd 6ed6 e0bc 40a7 f63b
00000150: 64ae 53bc 10dc 9cbc 80ca 58bc ddda 0ebc
00000160: b473 afbc 2b69 03bb 64c8 d03c c6ee d2ba
00000170: c83f 603d 95a4 503d ad0e 75bd a90d 9d3d
00000180: ed20 b8bc ac9a 613c 9511 1e3d 7d74 94bc
00000190: e4c2 4d3d b1ff 47bd e74d a73c 8469 fe3d
000001a0: 2987 b4bd 4ce3 8fbd 533a 72bd 0c47 043d
000001b0: d81e 9bbd d65b a2bc cc74 45bc 6774 54bd
000001c0: 3731 173c 6746 a53c ac98 993c 6290 5539
000001d0: d767 303d e22a 0e3d f2f5 7d3d 3137 903d
000001e0: af2a 7a3c c06a 31bb 0d8a 1dbb c53e 9e3d
000001f0: 585e 8cbb c80c 2cbd db5c 5ebc 37c7 6abd

_module.13.weight f4 [10, 128]
0.12479805 -0.09658484 0.01224708 -0.061812777 0.07177477 0.0001422374 0.08764709 0.0046352716
0.022239255 -0.08790328 -0.033076745 0.01902886 0.094190925 0.082288936 0.06763051 0.009767929
-0.047293697 0.024223415 0.037735928 -0.09924813 -0.03051819 0.049497884 0.053711478 -0.1492987
-0.047516964 0.06765077 -0.14808184 0.034978744 0.022169106 0.061194886 0.046246223 -0.012562132
0.021125589 -0.025805892 -0.059001435 0.08202946 -0.16499189 -0.104016535 -0.060911935 0.012728707
-0.032780945 0.009285774 0.10048655 -0.05478834 0.060927067 0.13770524 -0.1167946 0.060575143
-0.06178681 0.04691073 0.085013814 0.11762881 0.013119342 0.019843886 -0.022953352 -0.08076305
-0.1417105 0.16163284 -0.09195011 0.024347223 0.0020464538 -0.061946835 0.030793875 0.08038999
-0.18618865 -0.010587635 -0.02581297 -0.098566405 -0.08544279 -0.057514828 0.08745273 0.11010372
-0.058650825 0.028580958 -0.114048846 -0.06730485 0.014367151 -0.012159106 0.10200301 -0.07551822
-0.10335152 -0.047483295 -0.11413442 0.034120556 -0.023329698 -0.078256376 0.17180084 -0.009262251
0.07400942 -0.11071313 -0.08143753 0.05576269 0.1875516 0.058324642 0.015546426 0.031133354
0.1300878 -0.12332459 0.0073874807 0.13526534 0.23884375 0.037635807 0.10751858 -0.012086715
0.05785585 0.03290957 0.07659972 0.11769765 -0.0065263486 -0.107894495 0.008700242 0.036318313
0.15956275 0.0634181 -0.17742887 0.09984782 -0.10192239 0.05325712 0.018398244 0.022666715
0.018211018 0.07648242 -0.039364308 0.122936845 0.044502065 -0.08226598 0.07353105 -0.02705274
0.16897507 -0.037073784 -0.15277474 0.18473212 -0.14234038 0.090133704 -0.04405444 0.028665606
-0.08842316 -0.039534707 -0.07717584 0.14518721 -0.023863686 -0.14489126 0.04468122 0.0056598885
-0.114553355 -0.12520105 0.060907356 -0.09954703 0.09772796 0.001622789 0.04891436 0.040657546
0.022455068 -0.12712932 0.081035316 -0.25002182 -0.2493187 0.04288353 -0.10181858 -0.13793664
0.057755873 0.124717034 -0.10583994 -0.059485573 -0.14523225 -0.0067828563 -0.037823908 -0.08028529
0.07960585 0.06487372 0.08661445 0.20430116 0.048901957 0.038166527 -0.07300901 0.0274362
0.04554154 0.02468273 -0.05002201 0.14183228 0.041836273 0.010394159 -0.008930768 0.0005017607
-0.21082568 5.857796e-05 -0.07503634 -0.12804458 -0.032817572 0.06956894 -0.14249347 0.14380263
0.020396946 -0.09206665 0.01733757 -0.0145738805 -0.09055622 -0.20871231 -0.029673291 -0.04733658
0.013661169 0.10180056 -0.106680766 0.12228246 -0.05320526 -0.10813958 -0.05101226 0.11413068
-0.018282529 0.022584604 0.022525702 0.15303376 0.072804764 0.06423099 0.18581097 -0.037465163
0.07791439 0.012422449 0.052026547 -0.06354001 0.03147932 0.18004368 0.0019326037 -0.05557896
-0.06798041 -0.046137754 0.090385616 -0.18524583 -0.0125915855 0.13425027 -0.09702788 -0.17013228
0.100532435 -0.032125436 -0.112437256 0.03158521 0.03237997 -0.08568009 0.15814035 0.117560476
-0.066020295 0.036208786 -0.052680843 -0.08796547 0.06218165 0.06858356 -0.11841722 -0.0124326935
-0.10329825 0.20876399 0.16827601 0.0882035 0.11090373 -0.06402962 0.13681091 0.00027273755
00000000: 1f96 ff3d 46ce c5bd faa7 483c 652f 7dbd
00000010: a7fe 923d 9025 1539 5180 b33d 7ae3 973b
00000020: 192f b63c a306 b4bd 7b7b 07bd 69e2 9b3c
00000030: 2ce7 c03d 1a87 a83d dd81 8a3d aa09 203c
00000040: 09b7 41bd 2f70 c63c fd90 1a3d 9b42 cbbd
00000050: 4801 fabc 4bbe 4a3d 9100 5c3d c2e1 18be
00000060: 26a1 42bd 7d8c 8a3d c4a2 17be df45 0f3d
00000070: fc9b b53c 7da7 7a3d ae6c 3d3d 67d1 4dbc
00000080: 920f ad3c e166 d3bc 7dab 71bd 10ff a73d
00000090: a2f3 28be 9f06 d5bd cb7e 79bd 118c 503c
000000a0: 5045 06bd 5c23 183c e4cb cd3d bd69 60bd
000000b0: a98e 793d 9a02 0d3e 0232 efbd a41d 783d
000000c0: 2b14 7dbd 7725 403d b91b ae3d 60e7 f03d
000000d0: 82f2 563c a58f a23c ab08 bcbc 1967 a5bd
000000e0: 8f1c 11be 1483 253e 5750 bcbd d473 c73c
000000f0: cc1d 063b f7bb 7dbd 7043 fc3c 82a3 a43d
00000100: 3da8 3ebe c377 2dbc b975 d3bc 2fdd c9bd
00000110: a1fc aebd ab94 6bbd 6b1a b33d 0f7e e13d
00000120: d93b 70bd 9d22 ea3c 7192 e9bd 20d7 89bd
00000130: 3364 6b3c fd36 47bc f4e6 d03d 4ca9 9abd
00000140: f6a9 d3bd d87d 42bd 4fbf e9bd ffc1 0b3d
00000150: ec1d bfbc e144 a0bd 8fec 2f3e b2c0 17bc
00000160: 4092 973d 91bd e2bd b8c8 a6bd 6b67 643d
00000170: 870d 403e d2e5 6e3d 70b6 7e3c 600b ff3c
00000180: bc35 053e 9a91 fcbd ae12 f23b ff82 0a3e
00000190: 7593 743e 0128 1a3d b432 dc3d 5b07 46bc
000001a0: 41fa 6c3d 2fcc 063d 50e0 9c3d 770b f13d
000001b0: fbda d5bb caf7 dcbd 768b 0e3c 83c2 143d
000001c0: 6b64 233e 59e1 813d eaaf 35be 047d cc3d
000001d0: b0bc d0bd 2324 5a3d eab7 963c 8caf b93c
000001e0: 462f 953c d1a2 9c3d 783c 21bd 50c6 fb3d
000001f0: cc47 363d 117b a8bd 7297 963d b59d ddbc
00000200: cd07 2d3e aeda 17bd fb70 1cbe 6b2a 3d3e
00000210: adc1 11be 0598 b83d 6e72 34bd 22d4 ea3c
00000220: 3417 b5bd 25ef 21bd 5e0e 9ebd f5ab 143e
00000230: c77d c3bc 605e 14be a803 373d 9676 b93b
00000240: f39a eabd b434 00be fe79 793d 50df cbbd
00000250: 9925 c83d c3b3 d43a 6d5a 483d 8788 263d
00000260: b1f3 b73c 302e 02be d8f5 a53d dc02 80be
00000270: 674d 7fbe a4a6 2f3d 4286 d0bd 433f 0dbe
00000280: 6c91 6c3d a56b ff3d 9cc2 d8bd 25a7 73bd
00000290: c3b7 14be b942 debb 3eed 1abd 9d6c a4bd
000002a0: 6408 a33d 83dc 843d eb62 b13d 5334 513e
000002b0: 6b4d 483d 8154 1c3d bf85 95bd e2c1 e03c
000002c0: c489 3a3d 7033 ca3c e1e3 4cbd 7b3c 113e
000002d0: 835c 2b3d 434c 2a3c 5b52 12bc 9788 033a
000002e0: b0e2 57be 9bb1 7538 a7ac 99bd 1e1e 03be
000002f0: b86b 06bd 297a 8e3d cfe9 11be ff40 133e
00000300: 7f17 a73c 718d bcbd 8507 8e3c 49c7 6ebc
00000310: 8a75 b9bd aeb8 55be 6715 f3bc 00e4 41bd
00000320: 19d3 5f3c d07c d03d 727b dabd 3a6f fa3d
00000330: c2ed 59bd 4978 ddbd 3bf2 50bd 59bd e93d
00000340: 3ec5 95bc 5903 b93c d287 b83c e2b4 1c3e
00000350: aa1a 953d 8a8b 833d 3b45 3e3e 1275 19bd
00000360: 9491 9f3d 8787 4b3c ca19 553d 4421 82bd
00000370: 76f0 003d 5f5d 383e 6b4f fd3a c3a6 63bd
00000380: 5039 8bbd f1fa 3cbd 181c b93d 15b1 3dbe
00000390: f04c 4ebc e778 093e 8eb6 c6bd 2837 2ebe
000003a0: f3e3 cd3d f695 03bd 8145 e6bd 7e5f 013d
000003b0: dca0 043d 0b79 afbd 8bef 213e 8cc3 f03d
000003c0: a635 87bd aa4f 143d dec7 57bd 3e27 b4bd
000003d0: 30b2 7e3d 8a75 8c3d ba84 f2bd 7fb2 4bbc
000003e0: 088e d3bd 3ac6 553e 8c50 2c3e 09a4 b43d
000003f0: 7f21 e33d f621 83bd 2918 0c3e 37fe 8e39

_module.13.bias f4 [10]
-0.0019239952 -0.1890467 0.1978947 -0.10285709 0.28247148 -0.13035856 0.16583793 -0.15128173
0.20285174 -0.112112574
00000000: 912e fcba 7595 41be e9a4 4a3e bda6 d2bd
00000010: 1aa0 903e b77c 05be 6bd1 293e 99e9 1abe
00000020: 5eb8 4f3e 479b e5bd
